…
[2025-04-28 13:38:58,313] INFO - Model info:
[2025-04-28 13:38:58,314] INFO - HiNeRV(
  (encoding): HiNeRVEncoding(
    size=(61, 18, 32), channels=6, grid_level=2, grid_sizes=[(150, 18, 32, 2), (75, 18, 32, 4)]
    (grids): ParameterList(
        (0): Object of type: FeatureGrid
        (1): Object of type: FeatureGrid
      (0): FeatureGrid()
      (1): FeatureGrid()
    )
    (grid_expands): ModuleList(
      (0-1): 2 x GridTrilinear3D()
    )
  )
  (decoder): HiNeRVDecoder(
    input_size=(61, 18, 32), input_channels=6, ouput_size=(61, 1080, 1920), output_channels=3
    (stem): Conv2dBlock(
      (conv): Conv2d(6, 280, kernel_size=(3, 3), stride=(1, 1), padding=same)
      (norm): Identity()
      (act): Identity()
    )
    (blocks): ModuleList(
      (0): ModuleList(
        (0): HiNeRVUpsampler(
          scale=(1, 5, 5), upsample_type=trilinear
          (norm): LayerNorm((280,), eps=1e-06, elementwise_affine=False)
          (act): Identity()
          (layer): FastTrilinearInterpolation(method=matmul-th-w, align_corners=False)
        )
        (1): PositionalEncoder(
          scale=(1, 5, 5), channels=280, coor_type=normalized, enc_type=temp_local_grid
          (coor): NormalizedCoordinate(align_corners=False)
          (enc): TemporalLocalGridEncoding(
            C=280, grid_sizes=[(61, 1, 1, 1, 5, 5, 4), (30, 1, 1, 1, 5, 5, 8), (15, 1, 1, 1, 5, 5, 16)], grid_level=3, grid_level_scale=(2.0, 1, 1, 0.5), init_scale=0.001, align_corners=False
            (grids): ModuleList(
              (0-2): 3 x FeatureGrid()
            )
            (linear): Linear(in_features=28, out_features=280, bias=True)
          )
        )
        (2-4): 3 x ConvNeXtBlock(
          in_features=280, out_features=280, layerscale_init=0.0
          (dconv): Conv2d(280, 280, kernel_size=(3, 3), stride=(1, 1), padding=same, groups=280, bias=False)
          (norm): LayerNorm((280,), eps=1e-06, elementwise_affine=False)
          (fc1): Linear(in_features=280, out_features=1120, bias=False)
          (act): GELU(approximate='none')
          (dropout1): Dropout(p=0.0, inplace=False)
          (fc2): Linear(in_features=1120, out_features=280, bias=False)
          (dropout2): Dropout(p=0.0, inplace=False)
        )
      )
      (1): ModuleList(
        (0): HiNeRVUpsampler(
          scale=(1, 3, 3), upsample_type=trilinear
          (norm): LayerNorm((280,), eps=1e-06, elementwise_affine=False)
          (act): Identity()
          (layer): FastTrilinearInterpolation(method=matmul-th-w, align_corners=False)
        )
        (1): PositionalEncoder(
          scale=(1, 3, 3), channels=280, coor_type=normalized, enc_type=temp_local_grid
          (coor): NormalizedCoordinate(align_corners=False)
          (enc): TemporalLocalGridEncoding(
            C=280, grid_sizes=[(61, 1, 1, 1, 3, 3, 2), (30, 1, 1, 1, 3, 3, 4), (15, 1, 1, 1, 3, 3, 8)], grid_level=3, grid_level_scale=(2.0, 1, 1, 0.5), init_scale=0.001, align_corners=False
            (grids): ModuleList(
              (0-2): 3 x FeatureGrid()
            )
            (linear): Linear(in_features=14, out_features=280, bias=True)
          )
        )
        (2): ConvNeXtBlock(
          in_features=280, out_features=140, layerscale_init=0.0
          (dconv): Conv2d(280, 280, kernel_size=(3, 3), stride=(1, 1), padding=same, groups=280, bias=False)
          (norm): LayerNorm((280,), eps=1e-06, elementwise_affine=False)
          (fc1): Linear(in_features=280, out_features=560, bias=False)
          (act): GELU(approximate='none')
          (dropout1): Dropout(p=0.0, inplace=False)
          (fc2): Linear(in_features=560, out_features=140, bias=False)
          (dropout2): Dropout(p=0.0, inplace=False)
        )
        (3-4): 2 x ConvNeXtBlock(
          in_features=140, out_features=140, layerscale_init=0.0
          (dconv): Conv2d(140, 140, kernel_size=(3, 3), stride=(1, 1), padding=same, groups=140, bias=False)
          (norm): LayerNorm((140,), eps=1e-06, elementwise_affine=False)
          (fc1): Linear(in_features=140, out_features=560, bias=False)
          (act): GELU(approximate='none')
          (dropout1): Dropout(p=0.0, inplace=False)
          (fc2): Linear(in_features=560, out_features=140, bias=False)
          (dropout2): Dropout(p=0.0, inplace=False)
        )
      )
      (2): ModuleList(
        (0): HiNeRVUpsampler(
          scale=(1, 2, 2), upsample_type=trilinear
          (norm): LayerNorm((140,), eps=1e-06, elementwise_affine=False)
          (act): Identity()
          (layer): FastTrilinearInterpolation(method=matmul-th-w, align_corners=False)
        )
        (1): PositionalEncoder(
          scale=(1, 2, 2), channels=140, coor_type=normalized, enc_type=temp_local_grid
          (coor): NormalizedCoordinate(align_corners=False)
          (enc): TemporalLocalGridEncoding(
            C=140, grid_sizes=[(61, 1, 1, 1, 2, 2, 1), (30, 1, 1, 1, 2, 2, 2), (15, 1, 1, 1, 2, 2, 4)], grid_level=3, grid_level_scale=(2.0, 1, 1, 0.5), init_scale=0.001, align_corners=False
            (grids): ModuleList(
              (0-2): 3 x FeatureGrid()
            )
            (linear): Linear(in_features=7, out_features=140, bias=True)
          )
        )
        (2): ConvNeXtBlock(
          in_features=140, out_features=70, layerscale_init=0.0
          (dconv): Conv2d(140, 140, kernel_size=(3, 3), stride=(1, 1), padding=same, groups=140, bias=False)
          (norm): LayerNorm((140,), eps=1e-06, elementwise_affine=False)
          (fc1): Linear(in_features=140, out_features=280, bias=False)
          (act): GELU(approximate='none')
          (dropout1): Dropout(p=0.0, inplace=False)
          (fc2): Linear(in_features=280, out_features=70, bias=False)
          (dropout2): Dropout(p=0.0, inplace=False)
        )
        (3-4): 2 x ConvNeXtBlock(
          in_features=70, out_features=70, layerscale_init=0.0
          (dconv): Conv2d(70, 70, kernel_size=(3, 3), stride=(1, 1), padding=same, groups=70, bias=False)
          (norm): LayerNorm((70,), eps=1e-06, elementwise_affine=False)
          (fc1): Linear(in_features=70, out_features=280, bias=False)
          (act): GELU(approximate='none')
          (dropout1): Dropout(p=0.0, inplace=False)
          (fc2): Linear(in_features=280, out_features=70, bias=False)
          (dropout2): Dropout(p=0.0, inplace=False)
        )
      )
      (3): ModuleList(
        (0): HiNeRVUpsampler(
          scale=(1, 2, 2), upsample_type=trilinear
          (norm): LayerNorm((70,), eps=1e-06, elementwise_affine=False)
          (act): Identity()
          (layer): FastTrilinearInterpolation(method=matmul-th-w, align_corners=False)
        )
        (1): PositionalEncoder(
          scale=(1, 2, 2), channels=70, coor_type=normalized, enc_type=temp_local_grid
          (coor): NormalizedCoordinate(align_corners=False)
          (enc): TemporalLocalGridEncoding(
            C=70, grid_sizes=[(61, 1, 1, 1, 2, 2, 1), (30, 1, 1, 1, 2, 2, 2), (15, 1, 1, 1, 2, 2, 4)], grid_level=3, grid_level_scale=(2.0, 1, 1, 0.5), init_scale=0.001, align_corners=False
            (grids): ModuleList(
              (0-2): 3 x FeatureGrid()
            )
            (linear): Linear(in_features=7, out_features=70, bias=True)
          )
        )
        (2): ConvNeXtBlock(
          in_features=70, out_features=35, layerscale_init=0.0
          (dconv): Conv2d(70, 70, kernel_size=(3, 3), stride=(1, 1), padding=same, groups=70, bias=False)
          (norm): LayerNorm((70,), eps=1e-06, elementwise_affine=False)
          (fc1): Linear(in_features=70, out_features=35, bias=False)
          (act): GELU(approximate='none')
          (dropout1): Dropout(p=0.0, inplace=False)
          (fc2): Linear(in_features=35, out_features=35, bias=False)
          (dropout2): Dropout(p=0.0, inplace=False)
        )
      )
    )
    (head): LinearBlock(
      (linear): Linear(in_features=35, out_features=3, bias=True)
      (norm): Identity()
      (act): Sigmoid()
    )
  )
)
[2025-04-28 13:38:58,316] INFO - Number of parameters:
[2025-04-28 13:38:58,316] INFO -     All: 2.98M
[2025-04-28 13:38:58,316] INFO -     Decoder: 2.64M
[2025-04-28 13:38:58,316] INFO -     Model: 2.64M
[2025-04-28 13:38:58,316] INFO -     Encoding: 0.35M
[2025-04-28 13:38:58,317] INFO -     Upsampling Encoding: 0.00M
…
